…
                       min_lr=0.0001)\n","\n","model.compile(optimizer = 'rmsprop',loss = 'categorical_crossentropy',metrics = ['accuracy'])\n","print(model.summary())\n","history = model.fit(x_train,y_train,epochs = 50,validation_split=0.1,callbacks = [reduce_lr])"],"execution_count":null,"outputs":[{"output_type":"stream","text":["Model: \"sequential\"\n","_________________________________________________________________\n","Layer (type)                 Output Shape              Param #   \n","=================================================================\n","conv2d (Conv2D)              (None, 510, 510, 32)      896       \n","_________________________________________________________________\n","batch_normalization (BatchNo (None, 510, 510, 32)      128       \n","_________________________________________________________________\n","max_pooling2d (MaxPooling2D) (None, 255, 255, 32)      0         \n","_________________________________________________________________\n","dropout (Dropout)            (None, 255, 255, 32)      0         \n","_________________________________________________________________\n","conv2d_1 (Conv2D)            (None, 253, 253, 64)      18496     \n","_________________________________________________________________\n","batch_normalization_1 (Batch (None, 253, 253, 64)      256       \n","_________________________________________________________________\n","max_pooling2d_1 (MaxPooling2 (None, 126, 126, 64)      0         \n","_________________________________________________________________\n","dropout_1 (Dropout)          (None, 126, 126, 64)      0         \n","_________________________________________________________________\n","flatten (Flatten)            (None, 1016064)           0         \n","_________________________________________________________________\n","dense (Dense)                (None, 256)               260112640 \n","_________________________________________________________________\n","batch_normalization_2 (Batch (None, 256)               1024      \n","_________________________________________________________________\n","dropout_2 (Dropout)          (None, 256)               0         \n","_________________________________________________________________\n","dense_1 (Dense)              (None, 2)                 514       \n","=================================================================\n","Total params: 260,133,954\n","Trainable params: 260,133,250\n","Non-trainable params: 704\n","_________________________________________________________________\n","None\n","Epoch 1/50\n","2/2 [==============================] - 1s 310ms/step - loss: 0.8827 - accuracy: 0.6000 - val_loss: 0.0000e+00 - val_accuracy: 1.00
…
