…
},"id":"PD7LD9p3azhN","executionInfo":{"status":"ok","timestamp":1606471613582,"user_tz":-330,"elapsed":903,"user":{"displayName":"guru sai","photoUrl":"","userId":"17616421835412556497"}},"outputId":"1010e1a6-852d-414f-b388-e7fbcae5fbdb"},"source":["model1.summary()"],"execution_count":31,"outputs":[{"output_type":"stream","text":["Model: \"sequential\"\n","_________________________________________________________________\n","Layer (type)                 Output Shape              Param #   \n","=================================================================\n","conv2d (Conv2D)              (None, 510, 510, 32)      896       \n","_________________________________________________________________\n","batch_normalization (BatchNo (None, 510, 510, 32)      128       \n","_________________________________________________________________\n","max_pooling2d (MaxPooling2D) (None, 255, 255, 32)      0         \n","_________________________________________________________________\n","dropout (Dropout)            (None, 255, 255, 32)      0         \n","_________________________________________________________________\n","conv2d_1 (Conv2D)            (None, 253, 253, 32)      9248      \n","_________________________________________________________________\n","batch_normalization_1 (Batch (None, 253, 253, 32)      128       \n","_________________________________________________________________\n","max_pooling2d_1 (MaxPooling2 (None, 126, 126, 32)      0         \n","_________________________________________________________________\n","dropout_1 (Dropout)          (None, 126, 126, 32)      0         \n","_________________________________________________________________\n","conv2d_2 (Conv2D)            (None, 124, 124, 64)      18496     \n","_________________________________________________________________\n","batch_normalization_2 (Batch (None, 124, 124, 64)      256       \n","_________________________________________________________________\n","max_pooling2d_2 (MaxPooling2 (None, 62, 62, 64)        0         \n","_________________________________________________________________\n","dropout_2 (Dropout)          (None, 62, 62, 64)        0         \n","_________________________________________________________________\n","flatten (Flatten)            (None, 246016)            0         \n","_________________________________________________________________\n","dense (Dense)                (None, 1024)              251921408 \n","_________________________________________________________________\n","dropout_3 (Dropout)          (None, 1024)              0         \n","_________________________________________________________________\n","dense_1 (Dense)              (None, 1024)              1049600   \n","_________________________________________________________________\n","dense_2 (Dense)              (None, 2)                 2050      \n","=================================================================\n","Total params: 253,002,210\n","Trainable params: 253,001,954\n","Non-trainable params: 256\n","_________________________________________________________________\n"],"name":"stdout"}]},{"cell_type":"code","metadata":{"id":"-Q8ruzupcSCH","executionInfo":{"status":"ok","timestamp":1606471636649,"user_tz":-330,"elapsed":88
…
